#loc = loc("/shared_folders/querylake_server/side_projects/gpu_rl/workloads/reference/triton_attention_score_kernel.py":11:0)
#loc1 = loc(unknown)
#loc24 = loc("/shared_folders/querylake_server/side_projects/gpu_rl/workloads/reference/triton_attention_score_kernel.py":40:20)
#loc38 = loc(callsite(#loc1 at #loc24))
module {
  tt.func public @attention_score_kernel(%arg0: !tt.ptr<f32> {tt.divisibility = 16 : i32} loc("/shared_folders/querylake_server/side_projects/gpu_rl/workloads/reference/triton_attention_score_kernel.py":11:0), %arg1: !tt.ptr<f32> {tt.divisibility = 16 : i32} loc("/shared_folders/querylake_server/side_projects/gpu_rl/workloads/reference/triton_attention_score_kernel.py":11:0), %arg2: !tt.ptr<f32> {tt.divisibility = 16 : i32} loc("/shared_folders/querylake_server/side_projects/gpu_rl/workloads/reference/triton_attention_score_kernel.py":11:0), %arg3: i32 {tt.divisibility = 16 : i32} loc("/shared_folders/querylake_server/side_projects/gpu_rl/workloads/reference/triton_attention_score_kernel.py":11:0), %arg4: i32 {tt.divisibility = 16 : i32} loc("/shared_folders/querylake_server/side_projects/gpu_rl/workloads/reference/triton_attention_score_kernel.py":11:0), %arg5: i32 {tt.divisibility = 16 : i32} loc("/shared_folders/querylake_server/side_projects/gpu_rl/workloads/reference/triton_attention_score_kernel.py":11:0), %arg6: i32 loc("/shared_folders/querylake_server/side_projects/gpu_rl/workloads/reference/triton_attention_score_kernel.py":11:0), %arg7: i32 {tt.divisibility = 16 : i32} loc("/shared_folders/querylake_server/side_projects/gpu_rl/workloads/reference/triton_attention_score_kernel.py":11:0), %arg8: i32 {tt.divisibility = 16 : i32} loc("/shared_folders/querylake_server/side_projects/gpu_rl/workloads/reference/triton_attention_score_kernel.py":11:0), %arg9: f32 loc("/shared_folders/querylake_server/side_projects/gpu_rl/workloads/reference/triton_attention_score_kernel.py":11:0), %arg10: f32 loc("/shared_folders/querylake_server/side_projects/gpu_rl/workloads/reference/triton_attention_score_kernel.py":11:0)) attributes {noinline = false} {
    %cst = arith.constant dense<0.000000e+00> : tensor<32x32xf32> loc(#loc1)
    %cst_0 = arith.constant dense<0.000000e+00> : tensor<32xf32> loc(#loc1)
    %c32_i32 = arith.constant 32 : i32 loc(#loc1)
    %0 = tt.get_program_id x : i32 loc(#loc2)
    %1 = tt.get_program_id y : i32 loc(#loc3)
    %2 = arith.muli %1, %c32_i32 : i32 loc(#loc4)
    %3 = tt.make_range {end = 32 : i32, start = 0 : i32} : tensor<32xi32> loc(#loc5)
    %4 = tt.splat %2 : i32 -> tensor<32xi32> loc(#loc6)
    %5 = arith.addi %4, %3 : tensor<32xi32> loc(#loc6)
    %6 = arith.muli %0, %arg3 : i32 loc(#loc7)
    %7 = tt.addptr %arg0, %6 : !tt.ptr<f32>, i32 loc(#loc8)
    %8 = tt.splat %7 : !tt.ptr<f32> -> tensor<32x!tt.ptr<f32>> loc(#loc9)
    %9 = tt.addptr %8, %3 : tensor<32x!tt.ptr<f32>>, tensor<32xi32> loc(#loc9)
    %10 = tt.splat %arg8 : i32 -> tensor<32xi32> loc(#loc10)
    %11 = arith.cmpi slt, %3, %10 : tensor<32xi32> loc(#loc10)
    %12 = tt.load %9, %11, %cst_0 : tensor<32x!tt.ptr<f32>> loc(#loc11)
    %13 = tt.expand_dims %5 {axis = 1 : i32} : tensor<32xi32> -> tensor<32x1xi32> loc(#loc12)
    %14 = tt.splat %arg4 : i32 -> tensor<32x1xi32> loc(#loc13)
    %15 = arith.muli %13, %14 : tensor<32x1xi32> loc(#loc13)
    %16 = tt.splat %arg1 : !tt.ptr<f32> -> tensor<32x1x!tt.ptr<f32>> loc(#loc14)
    %17 = tt.addptr %16, %15 : tensor<32x1x!tt.ptr<f32>>, tensor<32x1xi32> loc(#loc14)
    %18 = tt.expand_dims %3 {axis = 0 : i32} : tensor<32xi32> -> tensor<1x32xi32> loc(#loc15)
    %19 = tt.broadcast %17 : tensor<32x1x!tt.ptr<f32>> -> tensor<32x32x!tt.ptr<f32>> loc(#loc16)
    %20 = tt.broadcast %18 : tensor<1x32xi32> -> tensor<32x32xi32> loc(#loc16)
    %21 = tt.addptr %19, %20 : tensor<32x32x!tt.ptr<f32>>, tensor<32x32xi32> loc(#loc16)
    %22 = tt.splat %arg7 : i32 -> tensor<32x1xi32> loc(#loc17)
    %23 = arith.cmpi slt, %13, %22 : tensor<32x1xi32> loc(#loc17)
    %24 = tt.splat %arg8 : i32 -> tensor<1x32xi32> loc(#loc18)
    %25 = arith.cmpi slt, %18, %24 : tensor<1x32xi32> loc(#loc18)
    %26 = tt.broadcast %23 : tensor<32x1xi1> -> tensor<32x32xi1> loc(#loc19)
    %27 = tt.broadcast %25 : tensor<1x32xi1> -> tensor<32x32xi1> loc(#loc19)
    %28 = arith.andi %26, %27 : tensor<32x32xi1> loc(#loc19)
    %29 = tt.load %21, %28, %cst : tensor<32x32x!tt.ptr<f32>> loc(#loc20)
    %30 = tt.expand_dims %12 {axis = 0 : i32} : tensor<32xf32> -> tensor<1x32xf32> loc(#loc21)
    %31 = tt.broadcast %30 : tensor<1x32xf32> -> tensor<32x32xf32> loc(#loc22)
    %32 = arith.mulf %29, %31 : tensor<32x32xf32> loc(#loc22)
    %33 = "tt.reduce"(%32) <{axis = 1 : i32}> ({
    ^bb0(%arg11: f32 loc(callsite(#loc1 at #loc24)), %arg12: f32 loc(callsite(#loc1 at #loc24))):
      %49 = arith.addf %arg11, %arg12 : f32 loc(#loc40)
      tt.reduce.return %49 : f32 loc(#loc37)
    }) : (tensor<32x32xf32>) -> tensor<32xf32> loc(#loc37)
    %34 = tt.splat %arg9 : f32 -> tensor<32xf32> loc(#loc26)
    %35 = arith.mulf %33, %34 : tensor<32xf32> loc(#loc26)
    %36 = tt.splat %0 : i32 -> tensor<32xi32> loc(#loc27)
    %37 = arith.cmpi sle, %5, %36 : tensor<32xi32> loc(#loc27)
    %38 = tt.splat %arg10 : f32 -> tensor<32xf32> loc(#loc28)
    %39 = arith.select %37, %35, %38 : tensor<32xi1>, tensor<32xf32> loc(#loc28)
    %40 = arith.muli %0, %arg5 : i32 loc(#loc29)
    %41 = tt.addptr %arg2, %40 : !tt.ptr<f32>, i32 loc(#loc30)
    %42 = tt.splat %41 : !tt.ptr<f32> -> tensor<32x!tt.ptr<f32>> loc(#loc31)
    %43 = tt.addptr %42, %5 : tensor<32x!tt.ptr<f32>>, tensor<32xi32> loc(#loc31)
    %44 = arith.cmpi slt, %0, %arg6 : i32 loc(#loc32)
    %45 = tt.splat %arg7 : i32 -> tensor<32xi32> loc(#loc33)
    %46 = arith.cmpi slt, %5, %45 : tensor<32xi32> loc(#loc33)
    %47 = tt.splat %44 : i1 -> tensor<32xi1> loc(#loc34)
    %48 = arith.andi %47, %46 : tensor<32xi1> loc(#loc34)
    tt.store %43, %39, %48 : tensor<32x!tt.ptr<f32>> loc(#loc35)
    tt.return loc(#loc36)
  } loc(#loc)
} loc(#loc)
#loc2 = loc("/shared_folders/querylake_server/side_projects/gpu_rl/workloads/reference/triton_attention_score_kernel.py":30:24)
#loc3 = loc("/shared_folders/querylake_server/side_projects/gpu_rl/workloads/reference/triton_attention_score_kernel.py":31:30)
#loc4 = loc("/shared_folders/querylake_server/side_projects/gpu_rl/workloads/reference/triton_attention_score_kernel.py":32:23)
#loc5 = loc("/shared_folders/querylake_server/side_projects/gpu_rl/workloads/reference/triton_attention_score_kernel.py":32:46)
#loc6 = loc("/shared_folders/querylake_server/side_projects/gpu_rl/workloads/reference/triton_attention_score_kernel.py":32:33)
#loc7 = loc("/shared_folders/querylake_server/side_projects/gpu_rl/workloads/reference/triton_attention_score_kernel.py":35:27)
#loc8 = loc("/shared_folders/querylake_server/side_projects/gpu_rl/workloads/reference/triton_attention_score_kernel.py":35:21)
#loc9 = loc("/shared_folders/querylake_server/side_projects/gpu_rl/workloads/reference/triton_attention_score_kernel.py":35:42)
#loc10 = loc("/shared_folders/querylake_server/side_projects/gpu_rl/workloads/reference/triton_attention_score_kernel.py":36:43)
#loc11 = loc("/shared_folders/querylake_server/side_projects/gpu_rl/workloads/reference/triton_attention_score_kernel.py":36:23)
#loc12 = loc("/shared_folders/querylake_server/side_projects/gpu_rl/workloads/reference/triton_attention_score_kernel.py":38:26)
#loc13 = loc("/shared_folders/querylake_server/side_projects/gpu_rl/workloads/reference/triton_attention_score_kernel.py":38:37)
#loc14 = loc("/shared_folders/querylake_server/side_projects/gpu_rl/workloads/reference/triton_attention_score_kernel.py":38:21)
#loc15 = loc("/shared_folders/querylake_server/side_projects/gpu_rl/workloads/reference/triton_attention_score_kernel.py":38:57)
#loc16 = loc("/shared_folders/querylake_server/side_projects/gpu_rl/workloads/reference/triton_attention_score_kernel.py":38:52)
#loc17 = loc("/shared_folders/querylake_server/side_projects/gpu_rl/workloads/reference/triton_attention_score_kernel.py":39:53)
#loc18 = loc("/shared_folders/querylake_server/side_projects/gpu_rl/workloads/reference/triton_attention_score_kernel.py":39:77)
#loc19 = loc("/shared_folders/querylake_server/side_projects/gpu_rl/workloads/reference/triton_attention_score_kernel.py":39:61)
#loc20 = loc("/shared_folders/querylake_server/side_projects/gpu_rl/workloads/reference/triton_attention_score_kernel.py":39:23)
#loc21 = loc("/shared_folders/querylake_server/side_projects/gpu_rl/workloads/reference/triton_attention_score_kernel.py":40:40)
#loc22 = loc("/shared_folders/querylake_server/side_projects/gpu_rl/workloads/reference/triton_attention_score_kernel.py":40:31)
#loc23 = loc("/home/querylake_manager/miniconda3/lib/python3.12/site-packages/triton/language/standard.py":286:36)
#loc25 = loc("/home/querylake_manager/miniconda3/lib/python3.12/site-packages/triton/language/standard.py":256:15)
#loc26 = loc("/shared_folders/querylake_server/side_projects/gpu_rl/workloads/reference/triton_attention_score_kernel.py":40:60)
#loc27 = loc("/shared_folders/querylake_server/side_projects/gpu_rl/workloads/reference/triton_attention_score_kernel.py":42:34)
#loc28 = loc("/shared_folders/querylake_server/side_projects/gpu_rl/workloads/reference/triton_attention_score_kernel.py":42:47)
#loc29 = loc("/shared_folders/querylake_server/side_projects/gpu_rl/workloads/reference/triton_attention_score_kernel.py":44:31)
#loc30 = loc("/shared_folders/querylake_server/side_projects/gpu_rl/workloads/reference/triton_attention_score_kernel.py":44:25)
#loc31 = loc("/shared_folders/querylake_server/side_projects/gpu_rl/workloads/reference/triton_attention_score_kernel.py":44:48)
#loc32 = loc("/shared_folders/querylake_server/side_projects/gpu_rl/workloads/reference/triton_attention_score_kernel.py":45:43)
#loc33 = loc("/shared_folders/querylake_server/side_projects/gpu_rl/workloads/reference/triton_attention_score_kernel.py":45:58)
#loc34 = loc("/shared_folders/querylake_server/side_projects/gpu_rl/workloads/reference/triton_attention_score_kernel.py":45:51)
#loc35 = loc("/shared_folders/querylake_server/side_projects/gpu_rl/workloads/reference/triton_attention_score_kernel.py":45:23)
#loc36 = loc("/shared_folders/querylake_server/side_projects/gpu_rl/workloads/reference/triton_attention_score_kernel.py":45:4)
#loc37 = loc(callsite(#loc23 at #loc24))
#loc39 = loc(callsite(#loc25 at #loc23))
#loc40 = loc(callsite(#loc39 at #loc24))
